…
z":-540,"elapsed":917,"user":{"displayName":"SEON MI KIM","photoUrl":"https://lh3.googleusercontent.com/a-/AOh14GitwPSDPPyi_4aqh7Tz9mW1IrKf3wKSXo-_NiGU=s64","userId":"03562068581376268377"}},"outputId":"a4d1721a-5647-456f-c5b2-f32d0feed973"},"source":["summary(model,input_size=(1, Tx, n_mfcc))"],"execution_count":101,"outputs":[{"output_type":"stream","text":["----------------------------------------------------------------\n","        Layer (type)               Output Shape         Param #\n","================================================================\n","            Conv2d-1           [-1, 3, 173, 24]              30\n","       BatchNorm2d-2           [-1, 3, 173, 24]               6\n","              ReLU-3           [-1, 3, 173, 24]               0\n","         MaxPool2d-4            [-1, 3, 86, 12]               0\n","            Conv2d-5            [-1, 2, 86, 12]              56\n","              ReLU-6            [-1, 2, 86, 12]               0\n","         MaxPool2d-7             [-1, 2, 43, 6]               0\n","            Linear-8                  [-1, 256]         132,352\n","              ReLU-9                  [-1, 256]               0\n","          Dropout-10                  [-1, 256]               0\n","           Linear-11                   [-1, 30]           7,710\n","================================================================\n","Total params: 140,154\n","Trainable params: 140,154\n","Non-trainable params: 0\n","----------------------------------------------------------------\n","Input size (MB): 0.02\n","Forward/backward pass size (MB): 0.35\n","Params size (MB): 0.53\n","Estimated Total Size (MB): 0.90\n","------------------------------------------
…
