…
z":-540,"elapsed":606,"user":{"displayName":"SEON MI KIM","photoUrl":"https://lh3.googleusercontent.com/a-/AOh14GitwPSDPPyi_4aqh7Tz9mW1IrKf3wKSXo-_NiGU=s64","userId":"03562068581376268377"}},"outputId":"5573c1a6-43fa-435e-a063-23a27367bea2"},"source":["summary(model,input_size=(1, Tx, n_mfcc))"],"execution_count":185,"outputs":[{"output_type":"stream","text":["----------------------------------------------------------------\n","        Layer (type)               Output Shape         Param #\n","================================================================\n","            Conv2d-1           [-1, 32, 55, 24]           1,088\n","              ReLU-2           [-1, 32, 55, 24]               0\n","         MaxPool2d-3           [-1, 32, 27, 12]               0\n","            Conv2d-4           [-1, 64, 27, 12]          18,496\n","              ReLU-5           [-1, 64, 27, 12]               0\n","         MaxPool2d-6            [-1, 64, 13, 6]               0\n","           Dropout-7            [-1, 64, 13, 6]               0\n","           Dropout-8            [-1, 64, 13, 6]               0\n","            Linear-9                  [-1, 128]         639,104\n","             ReLU-10                  [-1, 128]               0\n","           Linear-11                   [-1, 30]           3,870\n","================================================================\n","Total params: 662,558\n","Trainable params: 662,558\n","Non-trainable params: 0\n","----------------------------------------------------------------\n","Input size (MB): 0.02\n","Forward/backward pass size (MB): 1.16\n","Params size (MB): 2.53\n","Estimated Total Size (MB): 3.70\n","------------------------------------------
…
