…
":-540,"elapsed":1155,"user":{"displayName":"SEON MI KIM","photoUrl":"https://lh3.googleusercontent.com/a-/AOh14GitwPSDPPyi_4aqh7Tz9mW1IrKf3wKSXo-_NiGU=s64","userId":"03562068581376268377"}},"outputId":"9eab6278-d442-4fa5-855d-bb7de884345f"},"source":["summary(model,input_size=(1, Tx, num_mfcc))"],"execution_count":12,"outputs":[{"output_type":"stream","text":["----------------------------------------------------------------\n","        Layer (type)               Output Shape         Param #\n","================================================================\n","            Conv2d-1          [-1, 32, 173, 24]             320\n","              ReLU-2          [-1, 32, 173, 24]               0\n","         MaxPool2d-3           [-1, 32, 86, 12]               0\n","            Conv2d-4           [-1, 64, 86, 12]          18,496\n","              ReLU-5           [-1, 64, 86, 12]               0\n","         MaxPool2d-6            [-1, 64, 43, 6]               0\n","            Conv2d-7           [-1, 128, 43, 6]          73,856\n","              ReLU-8           [-1, 128, 43, 6]               0\n","         MaxPool2d-9           [-1, 128, 22, 4]               0\n","           Linear-10                  [-1, 625]       7,040,625\n","           Linear-11                  [-1, 625]       7,040,625\n","             ReLU-12                  [-1, 625]               0\n","          Dropout-13                  [-1, 625]               0\n","           Linear-14                   [-1, 30]          18,780\n","================================================================\n","Total params: 14,192,702\n","Trainable params: 14,192,702\n","Non-trainable params: 0\n","----------------------------------------------------------------\n","Input size (MB): 0.02\n","Forward/backward pass size (MB): 4.02\n","Params size (MB): 54.14\n","Estimated Total Size (MB): 58.18\n","----------------------------------
…
