…
":-540,"elapsed":1072,"user":{"displayName":"SEON MI KIM","photoUrl":"https://lh3.googleusercontent.com/a-/AOh14GitwPSDPPyi_4aqh7Tz9mW1IrKf3wKSXo-_NiGU=s64","userId":"03562068581376268377"}},"outputId":"d66d8232-7eca-40ba-9c1d-09d9b7ce8ea8"},"source":["summary(model,input_size=(1, Tx, n_mfcc))"],"execution_count":121,"outputs":[{"output_type":"stream","text":["----------------------------------------------------------------\n","        Layer (type)               Output Shape         Param #\n","================================================================\n","            Conv2d-1           [-1, 4, 173, 24]              40\n","       BatchNorm2d-2           [-1, 4, 173, 24]               8\n","              ReLU-3           [-1, 4, 173, 24]               0\n","         MaxPool2d-4            [-1, 4, 86, 12]               0\n","            Conv2d-5            [-1, 2, 87, 13]              34\n","       BatchNorm2d-6            [-1, 2, 87, 13]               4\n","              ReLU-7            [-1, 2, 87, 13]               0\n","         MaxPool2d-8             [-1, 2, 43, 6]               0\n","            Linear-9                  [-1, 128]          66,176\n","             ReLU-10                  [-1, 128]               0\n","          Dropout-11                  [-1, 128]               0\n","           Linear-12                   [-1, 30]           3,870\n","================================================================\n","Total params: 70,132\n","Trainable params: 70,132\n","Non-trainable params: 0\n","----------------------------------------------------------------\n","Input size (MB): 0.02\n","Forward/backward pass size (MB): 0.47\n","Params size (MB): 0.27\n","Estimated Total Size (MB): 0.75\n","--------------------------------------------
…
