…
tz":-540,"elapsed":1337,"user":{"displayName":"SEON MI KIM","photoUrl":"https://lh3.googleusercontent.com/a-/AOh14GitwPSDPPyi_4aqh7Tz9mW1IrKf3wKSXo-_NiGU=s64","userId":"03562068581376268377"}},"outputId":"256347ff-8944-4eab-a03f-ea8a307bf079"},"source":["summary(model,input_size=(1, Tx, n_mfcc))"],"execution_count":20,"outputs":[{"output_type":"stream","text":["----------------------------------------------------------------\n","        Layer (type)               Output Shape         Param #\n","================================================================\n","            Conv2d-1          [-1, 16, 173, 24]             144\n","       BatchNorm2d-2          [-1, 16, 173, 24]              32\n","              ReLU-3          [-1, 16, 173, 24]               0\n","            Conv2d-4          [-1, 16, 173, 24]           2,304\n","       BatchNorm2d-5          [-1, 16, 173, 24]              32\n","              ReLU-6          [-1, 16, 173, 24]               0\n","            Conv2d-7          [-1, 16, 173, 24]           2,304\n","       BatchNorm2d-8          [-1, 16, 173, 24]              32\n","              ReLU-9          [-1, 16, 173, 24]               0\n","    ResidualBlock-10          [-1, 16, 173, 24]               0\n","           Conv2d-11          [-1, 16, 173, 24]           2,304\n","      BatchNorm2d-12          [-1, 16, 173, 24]              32\n","             ReLU-13          [-1, 16, 173, 24]               0\n","           Conv2d-14          [-1, 16, 173, 24]           2,304\n","      BatchNorm2d-15          [-1, 16, 173, 24]              32\n","             ReLU-16          [-1, 16, 173, 24]               0\n","    ResidualBlock-17          [-1, 16, 173, 24]               0\n","        Dropout2d-18          [-1, 16, 173, 24]               0\n","           Conv2d-19           [-1, 32, 87, 12]           4,608\n","      BatchNorm2d-20           [-1, 32, 87, 12]              64\n","             ReLU-21           [-1, 32, 87, 12]               0\n","           Conv2d-22           [-1, 32, 87, 12]           9,216\n","      BatchNorm2d-23           [-1, 32, 87, 12]              64\n","           Conv2d-24           [-1, 32, 87, 12]           4,608\n","      BatchNorm2d-25           [-1, 32, 87, 12]              64\n","             ReLU-26           [-1, 32, 87, 12]               0\n","    ResidualBlock-27           [-1, 32, 87, 12]               0\n","           Conv2d-28           [-1, 32, 87, 12]           9,216\n","      BatchNorm2d-29           [-1, 32, 87, 12]              64\n","             ReLU-30           [-1, 32, 87, 12]               0\n","           Conv2d-31           [-1, 32, 87, 12]           9,216\n","      BatchNorm2d-32           [-1, 32, 87, 12]              64\n","             ReLU-33           [-1, 32, 87, 12]               0\n","    ResidualBlock-34           [-1, 32, 87, 12]               0\n","        Dropout2d-35           [-1, 32, 87, 12]               0\n","           Conv2d-36            [-1, 64, 44, 6]          18,432\n","      BatchNorm2d-37            [-1, 64, 44, 6]             128\n","             ReLU-38            [-1, 64, 44, 6]               0\n","           Conv2d-39            [-1, 64, 44, 6]          36,864\n","      BatchNorm2d-40            [-1, 64, 44, 6]             128\n","           Conv2d-41            [-1, 64, 44, 6]          18,432\n","      BatchNorm2d-42            [-1, 64, 44, 6]             128\n","             ReLU-43            [-1, 64, 44, 6]               0\n","    ResidualBlock-44            [-1, 64, 44, 6]               0\n","           Conv2d-45            [-1, 64, 44, 6]          36,864\n","      BatchNorm2d-46            [-1, 64, 44, 6]             128\n","             ReLU-47            [-1, 64, 44, 6]               0\n","           Conv2d-48            [-1, 64, 44, 6]          36,864\n","      BatchNorm2d-49            [-1, 64, 44, 6]             128\n","             ReLU-50            [-1, 64, 44, 6]               0\n","    ResidualBlock-51            [-1, 64, 44, 6]               0\n","        AvgPool2d-52            [-1, 64, 11, 1]               0\n","           Linear-53                   [-1, 30]          21,150\n","================================================================\n","Total params: 215,950\n","Trainable params: 215,950\n","Non-trainable params: 0\n","----------------------------------------------------------------\n","Input size (MB): 0.02\n","Forward/backward pass size (MB): 15.52\n","Params size (MB): 0.82\n","Estimated Total Size (MB): 16.36\n","----------------------------------------
…
