…
z":-540,"elapsed":443,"user":{"displayName":"SEON MI KIM","photoUrl":"https://lh3.googleusercontent.com/a-/AOh14GitwPSDPPyi_4aqh7Tz9mW1IrKf3wKSXo-_NiGU=s64","userId":"03562068581376268377"}},"outputId":"b7884e2d-07c9-45a2-a276-3c8cd3b5ddfe"},"source":["summary(model,input_size=(1, Tx, n_mfcc))"],"execution_count":253,"outputs":[{"output_type":"stream","text":["----------------------------------------------------------------\n","        Layer (type)               Output Shape         Param #\n","================================================================\n","            Conv2d-1           [-1, 32, 55, 24]           1,088\n","              ReLU-2           [-1, 32, 55, 24]               0\n","         MaxPool2d-3           [-1, 32, 27, 12]               0\n","         Dropout2d-4           [-1, 32, 27, 12]               0\n","            Conv2d-5           [-1, 64, 27, 12]          18,496\n","              ReLU-6           [-1, 64, 27, 12]               0\n","         MaxPool2d-7            [-1, 64, 13, 6]               0\n","         Dropout2d-8            [-1, 64, 13, 6]               0\n","            Linear-9                  [-1, 128]         639,104\n","             ReLU-10                  [-1, 128]               0\n","          Dropout-11                  [-1, 128]               0\n","           Linear-12                   [-1, 30]           3,870\n","================================================================\n","Total params: 662,558\n","Trainable params: 662,558\n","Non-trainable params: 0\n","----------------------------------------------------------------\n","Input size (MB): 0.02\n","Forward/backward pass size (MB): 1.20\n","Params size (MB): 2.53\n","Estimated Total Size (MB): 3.74\n","------------------------------------------
…
