…
tz":-540,"elapsed":1076,"user":{"displayName":"SEON MI KIM","photoUrl":"https://lh3.googleusercontent.com/a-/AOh14GitwPSDPPyi_4aqh7Tz9mW1IrKf3wKSXo-_NiGU=s64","userId":"03562068581376268377"}},"outputId":"13ae40b7-afad-4d86-bf6d-b129a905f172"},"source":["summary(model,input_size=(1, Tx, n_mfcc))"],"execution_count":72,"outputs":[{"output_type":"stream","text":["----------------------------------------------------------------\n","        Layer (type)               Output Shape         Param #\n","================================================================\n","            Conv2d-1          [-1, 32, 173, 24]             320\n","       BatchNorm2d-2          [-1, 32, 173, 24]              64\n","              ReLU-3          [-1, 32, 173, 24]               0\n","         MaxPool2d-4           [-1, 32, 86, 12]               0\n","            Conv2d-5           [-1, 64, 86, 12]          18,496\n","              ReLU-6           [-1, 64, 86, 12]               0\n","         MaxPool2d-7            [-1, 64, 43, 6]               0\n","            Conv2d-8           [-1, 128, 43, 6]          73,856\n","              ReLU-9           [-1, 128, 43, 6]               0\n","        MaxPool2d-10           [-1, 128, 22, 4]               0\n","           Linear-11                  [-1, 625]       7,040,625\n","             ReLU-12                  [-1, 625]               0\n","          Dropout-13                  [-1, 625]               0\n","           Linear-14                  [-1, 300]         187,800\n","             ReLU-15                  [-1, 300]               0\n","          Dropout-16                  [-1, 300]               0\n","           Linear-17                   [-1, 30]           9,030\n","================================================================\n","Total params: 7,330,191\n","Trainable params: 7,330,191\n","Non-trainable params: 0\n","----------------------------------------------------------------\n","Input size (MB): 0.02\n","Forward/backward pass size (MB): 5.04\n","Params size (MB): 27.96\n","Estimated Total Size (MB): 33.02\n","------------------------------------
…
