…
z":-540,"elapsed":701,"user":{"displayName":"SEON MI KIM","photoUrl":"https://lh3.googleusercontent.com/a-/AOh14GitwPSDPPyi_4aqh7Tz9mW1IrKf3wKSXo-_NiGU=s64","userId":"03562068581376268377"}},"outputId":"7ae89341-71b5-474f-f2e2-36c5cdf422ee"},"source":["summary(model,input_size=(1, Tx, n_mfcc))"],"execution_count":114,"outputs":[{"output_type":"stream","text":["----------------------------------------------------------------\n","        Layer (type)               Output Shape         Param #\n","================================================================\n","            Conv2d-1           [-1, 2, 173, 24]              20\n","       BatchNorm2d-2           [-1, 2, 173, 24]               4\n","              ReLU-3           [-1, 2, 173, 24]               0\n","         MaxPool2d-4            [-1, 2, 86, 12]               0\n","            Conv2d-5            [-1, 1, 86, 12]              19\n","       BatchNorm2d-6            [-1, 1, 86, 12]               2\n","              ReLU-7            [-1, 1, 86, 12]               0\n","         MaxPool2d-8             [-1, 1, 43, 6]               0\n","            Linear-9                  [-1, 128]          33,152\n","             ReLU-10                  [-1, 128]               0\n","          Dropout-11                  [-1, 128]               0\n","           Linear-12                   [-1, 30]           3,870\n","================================================================\n","Total params: 37,067\n","Trainable params: 37,067\n","Non-trainable params: 0\n","----------------------------------------------------------------\n","Input size (MB): 0.02\n","Forward/backward pass size (MB): 0.23\n","Params size (MB): 0.14\n","Estimated Total Size (MB): 0.39\n","--------------------------------------------
…
